…
.5, 'privileged': True, 'policy_kwargs': '{}', 'action_space': 'Box(-1.0, 1.0, (4,), float32)', 'policy_class': ""<class 'stable_baselines3.common.policies.ActorCriticPolicy'>"", 'gae_lambda': 0.95, 'policy': 'ActorCriticPolicy(\n  (features_extractor): FlattenExtractor(\n    (flatten): Flatten(start_dim=1, end_dim=-1)\n  )\n  (pi_features_extractor): FlattenExtractor(\n    (flatten): Flatten(start_dim=1, end_dim=-1)\n  )\n  (vf_features_extractor): FlattenExtractor(\n    (flatten): Flatten(start_dim=1, end_dim=-1)\n  )\n  (mlp_extractor): MlpExtractor(\n    (policy_net): Sequential(\n      (0): Linear(in_features=22, out_features=64, bias=True)\n      (1): Tanh()\n      (2): Linear(in_features=64, out_features=64, bias=True)\n      (3): Tanh()\n    )\n    (value_net): Sequential(\n      (0): Linear(in_features=22, out_features=64, bias=True)\n      (1): Tanh()\n      (2): Linear(in_features=64, out_features=64, bias=True)\n      (3): Tanh()\n    )\n  )\n  (action_net): Linear(in_features=64, out_features=4, bias=True)\n  (value_net): Linear(in_features=64, out_features=1, bias=True)\n)', 'rollout_buffer_class': ""<class 'stable_baselines3.common.buffers.RolloutBuffer'>"", 'n_steps': 2048, 'verbose': 1, 'sde_sample_freq': -1, 'seed': 'None', 'learning_rate': 0.0003}",ppo_4wt_symmetric_privileged_md75_cw_t1000000.0
2,"{'_runtime': 2729.515736911, '_step': 74, '_timestamp': 1728578131.6421728, '_wandb.runtime': 2729, 'eval/total_power':
…
buffer': '<stable_baselines3.common.buffers.RolloutBuffer object at 0x7f9fa0e84b50>', 'ep_success_buffer': 'deque([], maxlen=100)', 'rollout_buffer_kwargs': '{}', 'tensorboard_log': 'runs/14ywc7ym', 'policy': 'ActorCriticPolicy(\n  (features_extractor): FlattenExtractor(\n    (flatten): Flatten(start_dim=1, end_dim=-1)\n  )\n  (pi_features_extractor): FlattenExtractor(\n    (flatten): Flatten(start_dim=1, end_dim=-1)\n  )\n  (vf_features_extractor): FlattenExtractor(\n    (flatten): Flatten(start_dim=1, end_dim=-1)\n  )\n  (mlp_extractor): MlpExtractor(\n    (policy_net): Sequential(\n      (0): Linear(in_features=58, out_features=64, bias=True)\n      (1): Tanh()\n      (2): Linear(in_features=64, out_features=64, bias=True)\n      (3): Tanh()\n    )\n    (value_net): Sequential(\n      (0): Linear(in_features=58, out_features=64, bias=True)\n      (1): Tanh()\n      (2): Linear(in_features=64, out_features=64, bias=True)\n      (3): Tanh()\n    )\n  )\n  (action_net): Linear(in_features=64, out_features=8, bias=True)\n  (value_net): Linear(in_features=64, out_features=1, bias=True)\n)', 'verbose': 1, 'num_timesteps': 0, 'ent_coef': 0, 'experiment_name': 'ppo_lhs_env_nt8_md150_wb750x750_privileged_md150_cw_t1000000.0', 'seed': 'None', 'batch_size': 64, 'policy_kwargs': '{}', 'gae_lambda': 0.95}",ppo_lhs_env_nt8_md150_wb750x750_privileged_md150_cw_t1000000.0
3,"{'_runtime': 41884.760061537, '_step': 1285, '_timestamp': 1728625121.3629
…
03614736, 'train/policy_gradient_loss': -0.003754535, 'train/std': 0.47473598, 'train/value_loss': 0.0018905343}","{'agent': 'ppo', 'privileged': False, 'ent_coef': 0, 'normalize_advantage': 'True', 'policy': 'ActorCriticPolicy(\n  (features_extractor): FlattenExtractor(\n    (flatten): Flatten(start_dim=1, end_dim=-1)\n  )\n  (pi_features_extractor): FlattenExtractor(\n    (flatten): Flatten(start_dim=1, end_dim=-1)\n  )\n  (vf_features_extractor): FlattenExtractor(\n    (flatten): Flatten(start_dim=1, end_dim=-1)\n  )\n  (mlp_extractor): MlpExtractor(\n    (policy_net): Sequential(\n      (0): Linear(in_features=4, out_features=64, bias=True)\n      (1): Tanh()\n      (2): Linear(in_features=64, out_features=64, bias=True)\n      (3): Tanh()\n    )\n    (value_net): Sequential(\n      (0): Linear(in_features=4, out_features=64, bias=True)\n      (1): Tanh()\n      (2): Linear(in_features=64, out_features=64, bias=True)\n      (3): Tanh()\n    )\n  )\n  (action_net): Linear(in_features=64, out_features=4, bias=True)\n  (value_net): Linear(in_features=64, out_features=1, bias=True)\n)', 'experiment_name': 'ppo_4wt_symmetric_unprivileged_cw_t1000000.0', 'num_timesteps': 0, 'eval_reps': 10, 'ep_info_buffer': 'deque([], maxlen=100)', 'verbose': 1, 'gamma': 0.99, 'target_kl': 'None', 'rollout_buffer_class': ""<class 'stable_baselines3.common.buffers.RolloutBuffer'>"", 'learning_rate': 0.0003, 'ep_success_buffer': 'deque([], maxlen=100)'
…
reps': 10, 'mast_distancing': 75, 'clip_range_vf': 'None', 'max_grad_norm': 0.5, 'rollout_buffer': '<stable_baselines3.common.buffers.RolloutBuffer object at 0x1554440c8eb0>', 'policy_kwargs': '{}', 'policy': 'ActorCriticPolicy(\n  (features_extractor): FlattenExtractor(\n    (flatten): Flatten(start_dim=1, end_dim=-1)\n  )\n  (pi_features_extractor): FlattenExtractor(\n    (flatten): Flatten(start_dim=1, end_dim=-1)\n  )\n  (vf_features_extractor): FlattenExtractor(\n    (flatten): Flatten(start_dim=1, end_dim=-1)\n  )\n  (mlp_extractor): MlpExtractor(\n    (policy_net): Sequential(\n      (0): Linear(in_features=4, out_features=64, bias=True)\n      (1): Tanh()\n      (2): Linear(in_features=64, out_features=64, bias=True)\n      (3): Tanh()\n    )\n    (value_net): Sequential(\n      (0): Linear(in_features=4, out_features=64, bias=True)\n      (1): Tanh()\n      (2): Linear(in_features=64, out_features=64, bias=True)\n      (3): Tanh()\n    )\n  )\n  (action_net): Linear(in_features=64, out_features=4, bias=True)\n  (value_net): Linear(in_features=64, out_features=1, bias=True)\n)', 'env': '4wt_symmetric', 'noise': 0, 'n_envs': 1}",ppo_4wt_symmetric_unprivileged_cw_t1000000.0
30,{'_wandb.runtime': 6},"{'num_timesteps': 0, 'n_epochs': 10, 'vf_coef': 0.5, 'start_time': 1729103443947983597, 'seed': 'None', 'action_noise': 'None', 'rollout_buffer': '<stable_baselines3.common.buffers.RolloutBuffer object at 0x155444381d30>', 'policy_kwargs': '{}', 'batch_size': 64, 'n_envs': 1, 'policy': 'ActorCriticPolicy(\n  (features_extractor): FlattenExtractor(\n    (flatten): Flatten(start_dim=1, end_dim=-1)\n  )\n  (pi_features_extractor): FlattenExtractor(\n    (flatten): Flatten(start_dim=1, end_dim=-1)\n  )\n  (vf_features_extractor): FlattenExtractor(\n    (flatten): Flatten(start_dim=1, end_dim=-1)\n  )\n  (mlp_extractor): MlpExtractor(\n    (policy_net): Sequential(\n      (0): Linear(in_features=4, out_features=64, bias=True)\n      (1): Tanh()\n      (2): Linear(in_features=64, out_features=64, bias=True)\n      (3): Tanh()\n    )\n    (value_net): Sequential(\n      (0): Linear(in_features=4, out_features=64, bias=True)\n      (1): Tanh()\n      (2): Linear(in_features=64, out_features=64, bias=True)\n      (3): Tanh()\n    )\n  )\n  (action_net): Linear(in_features=64, out_features=4, bias=True)\n  (value_net): Linear(in_features=64, out_features=1, bias=True)\n)', 'env': '4wt_symmetric', 'observation_space': 'Box(0.0, 1.0, (4,), float32)', 'rollout_buffer_class': ""<class 'stable_baselines3.common.buffers.RolloutBuffer'>"", 'ent_coef': 0, 'n_steps': 2048, 'gamma': 0.99, 'clip_range': '<function get_schedule_fn.<locals>.<lambda> at 0x15543ce4d0d0>', 'lr_schedule': '<function get_schedule_fn.<locals>.<lambda> at
…
676, 'action_noise': 'None', 'lr_schedule': '<function get_schedule_fn.<locals>.<lambda> at 0x155449bc6700>', 'gamma': 0.99, 'batch_size': 64, 'clip_range_vf': 'None', 'normalize_advantage': 'True', 'policy': 'ActorCriticPolicy(\n  (features_extractor): FlattenExtractor(\n    (flatten): Flatten(start_dim=1, end_dim=-1)\n  )\n  (pi_features_extractor): FlattenExtractor(\n    (flatten): Flatten(start_dim=1, end_dim=-1)\n  )\n  (vf_features_extractor): FlattenExtractor(\n    (flatten): Flatten(start_dim=1, end_dim=-1)\n  )\n  (mlp_extractor): MlpExtractor(\n    (policy_net): Sequential(\n      (0): Linear(in_features=6, out_features=64, bias=True)\n      (1): Tanh()\n      (2): Linear(in_features=64, out_features=64, bias=True)\n      (3): Tanh()\n    )\n    (value_net): Sequential(\n      (0): Linear(in_features=6, out_features=64, bias=True)\n      (1): Tanh()\n      (2): Linear(in_features=64, out_features=64, bias=True)\n      (3): Tanh()\n    )\n  )\n  (action_net): Linear(in_features=64, out_features=4, bias=True)\n  (value_net): Linear(in_features=64, out_features=1, bias=True)\n)', 'ep_success_buffer': 'deque([], maxlen=100)', 'algo': 'PPO', 'ent_coef': 0, 'noise': 0, 'num_timesteps': 0, 'gae_lambda': 0.95, 'action_space': 'Box(-1.0, 1.0, (4,), float32)', 'max_grad_norm': 0.5, 'tensorboard_log': 'runs/siay7g55', 'sde_sample_freq': -1, 'observation_space': 'Box(0.0, 1.0, (6,), float32)', 'rollout_buffer_kwargs': '{}', 'mast_distancing': 150, 'verbose': 1, 'agent': 'PPO', 'n_envs': 1, 'rollout_buffer': '<stable_baselines3.common.buffers.RolloutBuffer object at 0x155449c16eb0>', 'device': 'cuda', 'vf_coef': 0.5}",PPO_4wt_symmetric_privileged_mdTrue_cw_1.00M
…
stancing': 100, 'rollout_buffer_kwargs': '{}', 'env': '4wt_symmetric', 'batch_size': 64, 'start_time': 1729203539617414003, 'ep_info_buffer': 'deque([], maxlen=100)', 'agent': 'PPO', 'n_epochs': 10, 'policy': 'ActorCriticPolicy(\n  (features_extractor): FlattenExtractor(\n    (flatten): Flatten(start_dim=1, end_dim=-1)\n  )\n  (pi_features_extractor): FlattenExtractor(\n    (flatten): Flatten(start_dim=1, end_dim=-1)\n  )\n  (vf_features_extractor): FlattenExtractor(\n    (flatten): Flatten(start_dim=1, end_dim=-1)\n  )\n  (mlp_extractor): MlpExtractor(\n    (policy_net): Sequential(\n      (0): Linear(in_features=12, out_features=64, bias=True)\n      (1): Tanh()\n      (2): Linear(in_features=64, out_features=64, bias=True)\n      (3): Tanh()\n    )\n    (value_net): Sequential(\n      (0): Linear(in_features=12, out_features=64, bias=True)\n      (1): Tanh()\n      (2): Linear(in_features=64, out_features=64, bias=True)\n      (3): Tanh()\n    )\n  )\n  (action_net): Linear(in_features=64, out_features=4, bias=True)\n  (value_net): Linear(in_features=64, out_features=1, bias=True)\n)', 'changing_wind': True, 'use_sde': 'False', 'normalize_advantage': 'True', 'action_space': 'Box(-1.0, 1.0, (4,), float32)', 'algo': 'PPO', 'gamma': 0.99, 'verbose': 1, 'vf_coef': 0.5, 'ent_coef': 0, 'n_steps': 2048, 'rollout_buffer_class': ""<class 'stable_baselines3.common.buffers.RolloutBuffer'>"", 'privileged': True, 'learning_rate': 0.0003, 'exper
…
loutBuffer'>"", 'verbose': 1, 'action_space': 'Box(-1.0, 1.0, (4,), float32)', 'use_sde': 'False', 'num_timesteps': 0, 'experiment_name': 'PPO_4wt_symmetric_privileged_mdTrue_cw_1.00M', 'n_envs': 1, 'policy': 'ActorCriticPolicy(\n  (features_extractor): FlattenExtractor(\n    (flatten): Flatten(start_dim=1, end_dim=-1)\n  )\n  (pi_features_extractor): FlattenExtractor(\n    (flatten): Flatten(start_dim=1, end_dim=-1)\n  )\n  (vf_features_extractor): FlattenExtractor(\n    (flatten): Flatten(start_dim=1, end_dim=-1)\n  )\n  (mlp_extractor): MlpExtractor(\n    (policy_net): Sequential(\n      (0): Linear(in_features=54, out_features=64, bias=True)\n      (1): Tanh()\n      (2): Linear(in_features=64, out_features=64, bias=True)\n      (3): Tanh()\n    )\n    (value_net): Sequential(\n      (0): Linear(in_features=54, out_features=64, bias=True)\n      (1): Tanh()\n      (2): Linear(in_features=64, out_features=64, bias=True)\n      (3): Tanh()\n    )\n  )\n  (action_net): Linear(in_features=64, out_features=4, bias=True)\n  (value_net): Linear(in_features=64, out_features=1, bias=True)\n)', 'vf_coef': 0.5, 'clip_range_vf': 'None'}",PPO_4wt_symmetric_privileged_mdTrue_cw_1.00M
66,"{'_runtime': 221.181911559, '_step': 16, '_timestamp': 1729203784.605825, '_wandb.runtime': 221, 'eval/total_power': 294378991.6664957, 'eval/total_power_max': 1464942515.1695206, 'eval/total_power_min': 0, 'eval/total_power_std': 433109355.5408558, 'eval/total
…
5iv36g', 'vf_coef': 0.5, 'max_grad_norm': 0.5, 'mast_distancing': 25, 'policy_kwargs': '{}', 'observation_space': 'Box(0.0, 1.0, (204,), float32)', 'gae_lambda': 0.95, 'n_epochs': 10, 'algo': 'PPO', 'policy': 'ActorCriticPolicy(\n  (features_extractor): FlattenExtractor(\n    (flatten): Flatten(start_dim=1, end_dim=-1)\n  )\n  (pi_features_extractor): FlattenExtractor(\n    (flatten): Flatten(start_dim=1, end_dim=-1)\n  )\n  (vf_features_extractor): FlattenExtractor(\n    (flatten): Flatten(start_dim=1, end_dim=-1)\n  )\n  (mlp_extractor): MlpExtractor(\n    (policy_net): Sequential(\n      (0): Linear(in_features=204, out_features=64, bias=True)\n      (1): Tanh()\n      (2): Linear(in_features=64, out_features=64, bias=True)\n      (3): Tanh()\n    )\n    (value_net): Sequential(\n      (0): Linear(in_features=204, out_features=64, bias=True)\n      (1): Tanh()\n      (2): Linear(in_features=64, out_features=64, bias=True)\n      (3): Tanh()\n    )\n  )\n  (action_net): Linear(in_features=64, out_features=4, bias=True)\n  (value_net): Linear(in_features=64, out_features=1, bias=True)\n)', 'experiment_name': 'PPO_4wt_symmetric_privileged_mdTrue_cw_1.00M', 'noise': 0, 'n_steps': 2048, 'n_envs': 1, 'rollout_buffer_class': ""<class 'stable_baselines3.common.buffers.RolloutBuffer'>"", 'target_kl': 'None', 'learning_rate': 0.0003, 'num_timesteps': 0, 'ep_info_buffer': 'deque([], maxlen=100)', 'verbose': 1, 'agent': 'PPO', 'changing_wind': True}",PPO_4wt_symmetric_privileged_mdTrue_cw_1.00M
…
: 0.95, 'action_space': 'Box(-1.0, 1.0, (16,), float32)', 'ep_success_buffer': 'deque([], maxlen=100)', 'rollout_buffer': '<stable_baselines3.common.buffers.RolloutBuffer object at 0x1553eb4d6b50>', 'policy': 'ActorCriticPolicy(\n  (features_extractor): FlattenExtractor(\n    (flatten): Flatten(start_dim=1, end_dim=-1)\n  )\n  (pi_features_extractor): FlattenExtractor(\n    (flatten): Flatten(start_dim=1, end_dim=-1)\n  )\n  (vf_features_extractor): FlattenExtractor(\n    (flatten): Flatten(start_dim=1, end_dim=-1)\n  )\n  (mlp_extractor): MlpExtractor(\n    (policy_net): Sequential(\n      (0): Linear(in_features=66, out_features=64, bias=True)\n      (1): Tanh()\n      (2): Linear(in_features=64, out_features=64, bias=True)\n      (3): Tanh()\n    )\n    (value_net): Sequential(\n      (0): Linear(in_features=66, out_features=64, bias=True)\n      (1): Tanh()\n      (2): Linear(in_features=64, out_features=64, bias=True)\n      (3): Tanh()\n    )\n  )\n  (action_net): Linear(in_features=64, out_features=16, bias=True)\n  (value_net): Linear(in_features=64, out_features=1, bias=True)\n)', 'start_time': 1729502782021310258, 'vf_coef': 0.5, 'n_envs': 1, 'seed': 'None', 'gamma': 0.99, 'normalize_advantage': 'True', 'privileged': True, 'n_epochs': 10, 'agent': 'PPO', 'noise': 0, 'eval_reps': 10, 'env': 'lhs_env_nt16_md75_wb1500x1500', 'ep_info_buffer': 'deque([], maxlen=100)', 'sde_sample_freq': -1, 'policy_kwargs': '{}', 'lr_schedule': '
…
 'sde_sample_freq': -1, 'seed': 'None', 'verbose': 1, 'action_noise': 'None', 'batch_size': 64, 'lr_schedule': '<function get_schedule_fn.<locals>.<lambda> at 0x1553eb50ec10>', 'max_grad_norm': 0.5, 'policy': 'ActorCriticPolicy(\n  (features_extractor): FlattenExtractor(\n    (flatten): Flatten(start_dim=1, end_dim=-1)\n  )\n  (pi_features_extractor): FlattenExtractor(\n    (flatten): Flatten(start_dim=1, end_dim=-1)\n  )\n  (vf_features_extractor): FlattenExtractor(\n    (flatten): Flatten(start_dim=1, end_dim=-1)\n  )\n  (mlp_extractor): MlpExtractor(\n    (policy_net): Sequential(\n      (0): Linear(in_features=106, out_features=64, bias=True)\n      (1): Tanh()\n      (2): Linear(in_features=64, out_features=64, bias=True)\n      (3): Tanh()\n    )\n    (value_net): Sequential(\n      (0): Linear(in_features=106, out_features=64, bias=True)\n      (1): Tanh()\n      (2): Linear(in_features=64, out_features=64, bias=True)\n      (3): Tanh()\n    )\n  )\n  (action_net): Linear(in_features=64, out_features=8, bias=True)\n  (value_net): Linear(in_features=64, out_features=1, bias=True)\n)', 'gae_lambda': 0.95, 'n_epochs': 10, 'rollout_buffer_class': ""<class 'stable_baselines3.common.buffers.RolloutBuffer'>"", 'noise': 0, 'n_steps': 2048, 'privileged': True, 'policy_class': ""<class 'stable_baselines3.common.policies.ActorCriticPolicy'>"", 'target_kl': 'None', 'agent': 'PPO', 'experiment_name': 'PPO_lhs_env_nt8_md150_wb750x750_privilege
…
: 0, 'changing_wind': True, 'observation_space': 'Box(0.0, 1.0, (114,), float32)', 'rollout_buffer_class': ""<class 'stable_baselines3.common.buffers.RolloutBuffer'>"", 'agent': 'PPO', 'verbose': 1, 'policy': 'ActorCriticPolicy(\n  (features_extractor): FlattenExtractor(\n    (flatten): Flatten(start_dim=1, end_dim=-1)\n  )\n  (pi_features_extractor): FlattenExtractor(\n    (flatten): Flatten(start_dim=1, end_dim=-1)\n  )\n  (vf_features_extractor): FlattenExtractor(\n    (flatten): Flatten(start_dim=1, end_dim=-1)\n  )\n  (mlp_extractor): MlpExtractor(\n    (policy_net): Sequential(\n      (0): Linear(in_features=114, out_features=64, bias=True)\n      (1): Tanh()\n      (2): Linear(in_features=64, out_features=64, bias=True)\n      (3): Tanh()\n    )\n    (value_net): Sequential(\n      (0): Linear(in_features=114, out_features=64, bias=True)\n      (1): Tanh()\n      (2): Linear(in_features=64, out_features=64, bias=True)\n      (3): Tanh()\n    )\n  )\n  (action_net): Linear(in_features=64, out_features=16, bias=True)\n  (value_net): Linear(in_features=64, out_features=1, bias=True)\n)', 'batch_size': 64, 'policy_class': ""<class 'stable_baselines3.common.policies.ActorCriticPolicy'>"", 'clip_range': '<function get_schedule_fn.<locals>.<lambda> at 0x1553c9d72af0>', 'ent_coef': 0, 'env': 'lhs_env_nt16_md75_wb1500x1500', 'policy_kwargs': '{}', 'experiment_name': 'PPO_lhs_env_nt16_md75_wb1500x1500_privileged_md200_cw_1.00M', 'algo': 'PP
…
 'tensorboard_log': 'runs/xj9rfaul', 'experiment_name': 'PPO_lhs_env_nt8_md150_wb750x750_privileged_md200_1.00M', 'action_noise': 'None', 'max_grad_norm': 0.5, 'verbose': 1, 'learning_rate': 0.0003, 'policy': 'ActorCriticPolicy(\n  (features_extractor): FlattenExtractor(\n    (flatten): Flatten(start_dim=1, end_dim=-1)\n  )\n  (pi_features_extractor): FlattenExtractor(\n    (flatten): Flatten(start_dim=1, end_dim=-1)\n  )\n  (vf_features_extractor): FlattenExtractor(\n    (flatten): Flatten(start_dim=1, end_dim=-1)\n  )\n  (mlp_extractor): MlpExtractor(\n    (policy_net): Sequential(\n      (0): Linear(in_features=26, out_features=64, bias=True)\n      (1): Tanh()\n      (2): Linear(in_features=64, out_features=64, bias=True)\n      (3): Tanh()\n    )\n    (value_net): Sequential(\n      (0): Linear(in_features=26, out_features=64, bias=True)\n      (1): Tanh()\n      (2): Linear(in_features=64, out_features=64, bias=True)\n      (3): Tanh()\n    )\n  )\n  (action_net): Linear(in_features=64, out_features=8, bias=True)\n  (value_net): Linear(in_features=64, out_features=1, bias=True)\n)', 'changing_wind': False, 'mast_distancing': 200, 'rollout_buffer_kwargs': '{}', 'agent': 'PPO', 'clip_range': '<function get_schedule_fn.<locals>.<lambda> at 0x155422bf0dc0>', 'device': 'cuda', 'policy_kwargs': '{}', 'ep_success_buffer': 'deque([], maxlen=100)', 'clip_range_vf': 'None', 'privileged': True, 'eval_reps': 10, 'ent_coef': 0, 'sde_sample_f
…
 'n_envs': 1, 'observation_space': 'Box(0.0, 1.0, (8,), float32)', 'changing_wind': False, 'vf_coef': 0.5, 'gae_lambda': 0.95, 'normalize_advantage': 'True', 'eval_reps': 10, 'action_noise': 'None', 'policy': 'ActorCriticPolicy(\n  (features_extractor): FlattenExtractor(\n    (flatten): Flatten(start_dim=1, end_dim=-1)\n  )\n  (pi_features_extractor): FlattenExtractor(\n    (flatten): Flatten(start_dim=1, end_dim=-1)\n  )\n  (vf_features_extractor): FlattenExtractor(\n    (flatten): Flatten(start_dim=1, end_dim=-1)\n  )\n  (mlp_extractor): MlpExtractor(\n    (policy_net): Sequential(\n      (0): Linear(in_features=8, out_features=64, bias=True)\n      (1): Tanh()\n      (2): Linear(in_features=64, out_features=64, bias=True)\n      (3): Tanh()\n    )\n    (value_net): Sequential(\n      (0): Linear(in_features=8, out_features=64, bias=True)\n      (1): Tanh()\n      (2): Linear(in_features=64, out_features=64, bias=True)\n      (3): Tanh()\n    )\n  )\n  (action_net): Linear(in_features=64, out_features=8, bias=True)\n  (value_net): Linear(in_features=64, out_features=1, bias=True)\n)', 'ep_info_buffer': 'deque([], maxlen=100)', 'ep_success_buffer': 'deque([], maxlen=100)', 'num_timesteps': 0, 'rollout_buffer_class': ""<class 'stable_baselines3.common.buffers.RolloutBuffer'>"", 'max_grad_norm': 0.5, 'algo': 'PPO', 'use_sde': 'False', 'rollout_buffer': '<stable_baselines3.common.buffers.RolloutBuffer object at 0x155448ceeeb0>', 'action_space': 'Box(-1.0, 1.0, (8,), float32)', 'tensorboard_log': 'runs/569wz9ij', 'clip_range': '<function get_schedule_fn.<locals>.<lambda> at 0x1554225c69d0>', 'env': 'lhs_env_nt8_md150_wb750x750', 'learning_rate': 0.0003}",PPO_lhs_env_nt8_md150_wb750x750_unprivileged_1.00M
…
,), float32)', 'clip_range_vf': 'None', 'rollout_buffer_class': ""<class 'stable_baselines3.common.buffers.RolloutBuffer'>"", 'gamma': 0.99, 'action_noise': 'None', 'privileged': False, 'n_envs': 1, 'policy': 'ActorCriticPolicy(\n  (features_extractor): FlattenExtractor(\n    (flatten): Flatten(start_dim=1, end_dim=-1)\n  )\n  (pi_features_extractor): FlattenExtractor(\n    (flatten): Flatten(start_dim=1, end_dim=-1)\n  )\n  (vf_features_extractor): FlattenExtractor(\n    (flatten): Flatten(start_dim=1, end_dim=-1)\n  )\n  (mlp_extractor): MlpExtractor(\n    (policy_net): Sequential(\n      (0): Linear(in_features=16, out_features=64, bias=True)\n      (1): Tanh()\n      (2): Linear(in_features=64, out_features=64, bias=True)\n      (3): Tanh()\n    )\n    (value_net): Sequential(\n      (0): Linear(in_features=16, out_features=64, bias=True)\n      (1): Tanh()\n      (2): Linear(in_features=64, out_features=64, bias=True)\n      (3): Tanh()\n    )\n  )\n  (action_net): Linear(in_features=64, out_features=16, bias=True)\n  (value_net): Linear(in_features=64, out_features=1, bias=True)\n)', 'seed': 'None', 'ep_success_buffer': 'deque([], maxlen=100)', 'use_sde': 'False', 'agent': 'PPO', 'mast_distancing': -1, 'policy_kwargs': '{}', 'normalize_advantage': 'True', 'max_grad_norm': 0.5, 'device': 'cuda', 'experiment_name': 'PPO_lhs_env_nt16_md75_wb1500x1500_unprivileged_cw_1.00M', 'policy_class': ""<class 'stable_baselines3.common.policies
…
