…
=100)","","10","PPO_4wt_symmetric_privileged_md150_1.00M","0.95","0.99","0.0003","<function get_schedule_fn.<locals>.<lambda> at 0x155449bbd8b0>","150","0.5","16","10","2048","0","True","0","Box(0.0, 1.0, (8,), float32)","ActorCriticPolicy(
  (features_extractor): FlattenExtractor(
    (flatten): Flatten(start_dim=1, end_dim=-1)
  )
  (pi_features_extractor): FlattenExtractor(
    (flatten): Flatten(start_dim=1, end_dim=-1)
  )
  (vf_features_extractor): FlattenExtractor(
    (flatten): Flatten(start_dim=1, end_dim=-1)
  )
  (mlp_extractor): MlpExtractor(
    (policy_net): Sequential(
      (0): Linear(in_features=8, out_features=64, bias=True)
      (1): Tanh()
      (2): Linear(in_features=64, out_features=64, bias=True)
      (3): Tanh()
    )
    (value_net): Sequential(
      (0): Linear(in_features=8, out_features=64, bias=True)
      (1): Tanh()
      (2): Linear(in_features=64, out_features=64, bias=True)
      (3): Tanh()
    )
  )
  (action_net): Linear(in_features=64, out_features=4, bias=True)
  (value_net): Linear(in_features=64, out_features=1, bias=True)
)","<class 'stable_baselines3.common.policies.ActorCriticPolicy'>","{}","true","<stable_baselines3.common.buffers.RolloutBuffer object at 0x155449bc5850>","<class 'stable_baselines3.common.buffers.RolloutBuffer'>","{}","-1","None","1729770938855595000","None","runs/azh15hnb","","False","1","0.5","4wt_symmetric","216088387.75595427","413055324.7926536","37665007.362965465","","","","","130619855.45988645","0.06002455215443174","0.11473759022018155","0.010462502045268185","0.03628329318330179","327680","","","","","22","0.00619312","0.055966187","0.2","-5.7851863","0.7851052","0.0003","-0.004946813","-0.0012433067","1.0275224","0.0025010013"
…
n=100)","","10","PPO_4wt_symmetric_privileged_md75_1.00M","0.95","0.99","0.0003","<function get_schedule_fn.<locals>.<lambda> at 0x155449c088b0>","75","0.5","16","10","2048","0","True","0","Box(0.0, 1.0, (24,), float32)","ActorCriticPolicy(
  (features_extractor): FlattenExtractor(
    (flatten): Flatten(start_dim=1, end_dim=-1)
  )
  (pi_features_extractor): FlattenExtractor(
    (flatten): Flatten(start_dim=1, end_dim=-1)
  )
  (vf_features_extractor): FlattenExtractor(
    (flatten): Flatten(start_dim=1, end_dim=-1)
  )
  (mlp_extractor): MlpExtractor(
    (policy_net): Sequential(
      (0): Linear(in_features=24, out_features=64, bias=True)
      (1): Tanh()
      (2): Linear(in_features=64, out_features=64, bias=True)
      (3): Tanh()
    )
    (value_net): Sequential(
      (0): Linear(in_features=24, out_features=64, bias=True)
      (1): Tanh()
      (2): Linear(in_features=64, out_features=64, bias=True)
      (3): Tanh()
    )
  )
  (action_net): Linear(in_features=64, out_features=4, bias=True)
  (value_net): Linear(in_features=64, out_features=1, bias=True)
)","<class 'stable_baselines3.common.policies.ActorCriticPolicy'>","{}","true","<stable_baselines3.common.buffers.RolloutBuffer object at 0x155449bf2610>","<class 'stable_baselines3.common.buffers.RolloutBuffer'>","{}","-1","None","1729770603940175400","None","runs/4zy1alo3","","False","1","0.5","4wt_symmetric","235936100.5561491","460222367.6812991","0","","","","","176267363.40247583","0.06553780571004142","0.12783954657813865","0","0.048963156500687735","720896","","","","","45","0.006821436","0.080755614","0.2","-5.8632293","0.84442353","0.0003","-0.010031719","-0.0007801389","1.0461531","0.0014740984"
…
axlen=100)","","10","PPO_4wt_symmetric_unprivileged_1.00M","0.95","0.99","0.0003","<function get_schedule_fn.<locals>.<lambda> at 0x155449bc1790>","-1","0.5","16","10","2048","0","True","0","Box(0.0, 1.0, (6,), float32)","ActorCriticPolicy(
  (features_extractor): FlattenExtractor(
    (flatten): Flatten(start_dim=1, end_dim=-1)
  )
  (pi_features_extractor): FlattenExtractor(
    (flatten): Flatten(start_dim=1, end_dim=-1)
  )
  (vf_features_extractor): FlattenExtractor(
    (flatten): Flatten(start_dim=1, end_dim=-1)
  )
  (mlp_extractor): MlpExtractor(
    (policy_net): Sequential(
      (0): Linear(in_features=6, out_features=64, bias=True)
      (1): Tanh()
      (2): Linear(in_features=64, out_features=64, bias=True)
      (3): Tanh()
    )
    (value_net): Sequential(
      (0): Linear(in_features=6, out_features=64, bias=True)
      (1): Tanh()
      (2): Linear(in_features=64, out_features=64, bias=True)
      (3): Tanh()
    )
  )
  (action_net): Linear(in_features=64, out_features=4, bias=True)
  (value_net): Linear(in_features=64, out_features=1, bias=True)
)","<class 'stable_baselines3.common.policies.ActorCriticPolicy'>","{}","false","<stable_baselines3.common.buffers.RolloutBuffer object at 0x155449bb28b0>","<class 'stable_baselines3.common.buffers.RolloutBuffer'>","{}","-1","None","1729770480583592400","None","runs/uf6mec2j","","False","1","0.5","4wt_symmetric","319797475.65168303","453883204.3276268","8
…
