…
0)","","10","PPO_4wt_symmetric_privileged_md150_cw_1.00M","0.95","0.99","0.0003","<function get_schedule_fn.<locals>.<lambda> at 0x155449bc78b0>","150","0.5","16","10","2048","0","True","0","Box(0.0, 1.0, (8,), float32)","ActorCriticPolicy(
  (features_extractor): FlattenExtractor(
    (flatten): Flatten(start_dim=1, end_dim=-1)
  )
  (pi_features_extractor): FlattenExtractor(
    (flatten): Flatten(start_dim=1, end_dim=-1)
  )
  (vf_features_extractor): FlattenExtractor(
    (flatten): Flatten(start_dim=1, end_dim=-1)
  )
  (mlp_extractor): MlpExtractor(
    (policy_net): Sequential(
      (0): Linear(in_features=8, out_features=64, bias=True)
      (1): Tanh()
      (2): Linear(in_features=64, out_features=64, bias=True)
      (3): Tanh()
    )
    (value_net): Sequential(
      (0): Linear(in_features=8, out_features=64, bias=True)
      (1): Tanh()
      (2): Linear(in_features=64, out_features=64, bias=True)
      (3): Tanh()
    )
  )
  (action_net): Linear(in_features=64, out_features=4, bias=True)
  (value_net): Linear(in_features=64, out_features=1, bias=True)
)","<class 'stable_baselines3.common.policies.ActorCriticPolicy'>","{}","true","<stable_baselines3.common.buffers.RolloutBuffer object at 0x155449c26850>","<class 'stable_baselines3.common.buffers.RolloutBuffer'>","{}","-1","None","1729771359069743900","None","runs/8k8xzfwf","","False","1","0.5","4wt_symmetric","379446995.6966387","1427228990.9979777","0","","","","","426178040.31422085","0.1054019432490663","0.39645249749943834","0","0.11838278897617248","917504","","","","","60","0.0040620095","0.030761719","0.2","-5.435011","0.706176","0.0003","0.0070222695","-0.00042995572","0.94042957","0.0022712948"
…
00)","","10","PPO_4wt_symmetric_privileged_md75_cw_1.00M","0.95","0.99","0.0003","<function get_schedule_fn.<locals>.<lambda> at 0x155449bc38b0>","75","0.5","16","10","2048","0","True","0","Box(0.0, 1.0, (24,), float32)","ActorCriticPolicy(
  (features_extractor): FlattenExtractor(
    (flatten): Flatten(start_dim=1, end_dim=-1)
  )
  (pi_features_extractor): FlattenExtractor(
    (flatten): Flatten(start_dim=1, end_dim=-1)
  )
  (vf_features_extractor): FlattenExtractor(
    (flatten): Flatten(start_dim=1, end_dim=-1)
  )
  (mlp_extractor): MlpExtractor(
    (policy_net): Sequential(
      (0): Linear(in_features=24, out_features=64, bias=True)
      (1): Tanh()
      (2): Linear(in_features=64, out_features=64, bias=True)
      (3): Tanh()
    )
    (value_net): Sequential(
      (0): Linear(in_features=24, out_features=64, bias=True)
      (1): Tanh()
      (2): Linear(in_features=64, out_features=64, bias=True)
      (3): Tanh()
    )
  )
  (action_net): Linear(in_features=64, out_features=4, bias=True)
  (value_net): Linear(in_features=64, out_features=1, bias=True)
)","<class 'stable_baselines3.common.policies.ActorCriticPolicy'>","{}","true","<stable_baselines3.common.buffers.RolloutBuffer object at 0x155449bc5910>","<class 'stable_baselines3.common.buffers.RolloutBuffer'>","{}","-1","None","1729770938858314500","None","runs/nh3xc4bd","","False","1","0.5","4wt_symmetric","370775629.4292481","1140270283.9052835","0","","","","","376944176.8390181","0.10299323039701336","0.31674174552924533","0","0.10470671578861614","262144","","","","","17","0.0034952543","0.026953125","0.2","-5.744576","0.6025467","0.0003","0.014739214","-0.0012131984","1.0156282","0.0020312506"
…
en=100)","","10","PPO_4wt_symmetric_unprivileged_cw_1.00M","0.95","0.99","0.0003","<function get_schedule_fn.<locals>.<lambda> at 0x155449bb38b0>","-1","0.5","16","10","2048","0","True","0","Box(0.0, 1.0, (6,), float32)","ActorCriticPolicy(
  (features_extractor): FlattenExtractor(
    (flatten): Flatten(start_dim=1, end_dim=-1)
  )
  (pi_features_extractor): FlattenExtractor(
    (flatten): Flatten(start_dim=1, end_dim=-1)
  )
  (vf_features_extractor): FlattenExtractor(
    (flatten): Flatten(start_dim=1, end_dim=-1)
  )
  (mlp_extractor): MlpExtractor(
    (policy_net): Sequential(
      (0): Linear(in_features=6, out_features=64, bias=True)
      (1): Tanh()
      (2): Linear(in_features=64, out_features=64, bias=True)
      (3): Tanh()
    )
    (value_net): Sequential(
      (0): Linear(in_features=6, out_features=64, bias=True)
      (1): Tanh()
      (2): Linear(in_features=64, out_features=64, bias=True)
      (3): Tanh()
    )
  )
  (action_net): Linear(in_features=64, out_features=4, bias=True)
  (value_net): Linear(in_features=64, out_features=1, bias=True)
)","<class 'stable_baselines3.common.policies.ActorCriticPolicy'>","{}","false","<stable_baselines3.common.buffers.RolloutBuffer object at 0x155449bb7820>","<class 'stable_baselines3.common.buffers.RolloutBuffer'>","{}","-1","None","1729770480760868000","None","runs/2810cuzk","","False","1","0.5","4wt_symmetric","260045217.1208439","1138165436.5689812","0
…
